Loading FireNet dataset with (64, 64) dimensions
Loading images...
Ok
x_train shape: (1696, 64, 64, 3)
1696 train samples
786 fire
910 no_fire
x_val shape: (729, 64, 64, 3)
729 test samples
338 fire
391 no_fire
num_classes 2 input_shape (64, 64, 3)
_________________________________________________________________
Layer (type)                 Output Shape              Param #
=================================================================
conv2d (Conv2D)              (None, 62, 62, 16)        448
_________________________________________________________________
average_pooling2d (AveragePo (None, 31, 31, 16)        0
_________________________________________________________________
dropout (Dropout)            (None, 31, 31, 16)        0
_________________________________________________________________
conv2d_1 (Conv2D)            (None, 29, 29, 32)        4640
_________________________________________________________________
average_pooling2d_1 (Average (None, 14, 14, 32)        0
_________________________________________________________________
dropout_1 (Dropout)          (None, 14, 14, 32)        0
_________________________________________________________________
conv2d_2 (Conv2D)            (None, 12, 12, 64)        18496
_________________________________________________________________
average_pooling2d_2 (Average (None, 6, 6, 64)          0
_________________________________________________________________
dropout_2 (Dropout)          (None, 6, 6, 64)          0
_________________________________________________________________
flatten (Flatten)            (None, 2304)              0
_________________________________________________________________
dense (Dense)                (None, 256)               590080
_________________________________________________________________
dropout_3 (Dropout)          (None, 256)               0
_________________________________________________________________
dense_1 (Dense)              (None, 128)               32896
_________________________________________________________________
dense_2 (Dense)              (None, 2)                 258
=================================================================
Total params: 646,818
Trainable params: 646,818
Non-trainable params: 0
_________________________________________________________________
Train on 1696 samples, validate on 729 samples
Epoch 1/100
1664/1696 [============================>.] - ETA: 0s - loss: 0.6192 - acc: 0.6496
Epoch 00001: val_acc improved from -inf to 0.71742, saving model to models/saved/model_firenet_tf.h5
…
