(pytorch) [kelo@kelo-hp firenet]$ python octfiresnet_pytorch.py
Reading file: ./datasets/FireNetDataset/dataset.csv
Reading file: ./datasets/FireNetDataset/dataset.csv
OctFiResNet(
  (first_block): Sequential(
    (0): Conv2d(3, 64, kernel_size=(7, 7), stride=(1, 1), padding=(3, 3), bias=False)
    (1): BatchNorm2d(64, eps=1e-05, momentum=0.1, affine=True, track_running_stats=True)
    (2): ReLU(inplace=True)
    (3): MaxPool2d(kernel_size=3, stride=2, padding=1, dilation=1, ceil_mode=False)
  )
  (residual_blocks): Sequential(
    (0): OctconvBottleneck(
      (conv1): Sequential(
        (0): OctConv2d(in_channels=(low: 0, high: 64), out_channels=(low: 16, high: 48),
                  kernel_size=(1, 1), stride=(1, 1),
                  padding=0, alphas=(0.0, 0.25), bias=False)
        (1): _BatchNorm2d(
          (bnh): BatchNorm2d(48, eps=1e-05, momentum=0.1, affine=True, track_running_stats=True)
          (bnl): BatchNorm2d(16, eps=1e-05, momentum=0.1, affine=True, track_running_stats=True)
        )
        (2): _ReLU(inplace=True)
      )
      (conv2): Sequential(
        (0): OctConv2d(in_channels=(low: 16, high: 48), out_channels=(low: 16, high: 48),
                  kernel_size=(3, 3), stride=(1, 1),
                  padding=1, alphas=(0.25, 0.25), bias=False)
        (1): _BatchNorm2d(
          (bnh): BatchNorm2d(48, eps=1e-05, momentum=0.1, affine=True, track_running_stats=True)
          (bnl): BatchNorm2d(16, eps=1e-05, momentum=0.1, affine=True, track_running_stats=True)
        )
        (2): _ReLU(inplace=True)
      )
      (conv3): Sequential(
        (0): OctConv2d(in_channels=(low: 16, high: 48), out_channels=(low: 64, high: 192),
                  kernel_size=(1, 1), stride=(1, 1),
                  padding=0, alphas=(0.25, 0.25), bias=False)
        (1): _BatchNorm2d(
          (bnh): BatchNorm2d(192, eps=1e-05, momentum=0.1, affine=True, track_running_stats=True)
          (bnl): BatchNorm2d(64, eps=1e-05, momentum=0.1, affine=True, track_running_stats=True)
        )
      )
      (downsample): Sequential(
        (0): OctConv2d(in_channels=(low: 0, high: 64), out_channels=(low: 64, high: 192),
                  kernel_size=(1, 1), stride=(1, 1),
                  padding=0, alphas=(0.0, 0.25), bias=False)
        (1): _BatchNorm2d(
          (bnh): BatchNorm2d(192, eps=1e-05, momentum=0.1, affine=True, track_running_stats=True)
          (bnl): BatchNorm2d(64, eps=1e-05, momentum=0.1, affine=True, track_running_stats=True)
        )
      )
    )
    (1): OctconvBottleneck(
      (conv1): Sequential(
        (0): OctConv2d(in_channels=(low: 64, high: 192), out_channels=(low: 16, high: 48),
                  kernel_size=(1, 1), stride=(1, 1),
                  padding=0, alphas=(0.25, 0.25), bias=False)
        (1): _BatchNorm2d(
          (bnh): BatchNorm2d(48, eps=1e-05, momentum=0.1, affine=True, track_running_stats=True)
          (bnl): BatchNorm2d(16, eps=1e-05, momentum=0.1, affine=True, track_running_stats=True)
        )
        (2): _ReLU(inplace=True)
      )
      (conv2): Sequential(
        (0): OctConv2d(in_channels=(low: 16, high: 48), out_channels=(low: 16, high: 48),
                  kernel_size=(3, 3), stride=(1, 1),
                  padding=1, alphas=(0.25, 0.25), bias=False)
        (1): _BatchNorm2d(
          (bnh): BatchNorm2d(48, eps=1e-05, momentum=0.1, affine=True, track_running_stats=True)
          (bnl): BatchNorm2d(16, eps=1e-05, momentum=0.1, affine=True, track_running_stats=True)
        )
        (2): _ReLU(inplace=True)
      )
      (conv3): Sequential(
        (0): OctConv2d(in_channels=(low: 16, high: 48), out_channels=(low: 64, high: 192),
                  kernel_size=(1, 1), stride=(1, 1),
                  padding=0, alphas=(0.25, 0.25), bias=False)
        (1): _BatchNorm2d(
          (bnh): BatchNorm2d(192, eps=1e-05, momentum=0.1, affine=True, track_running_stats=True)
          (bnl): BatchNorm2d(64, eps=1e-05, momentum=0.1, affine=True, track_running_stats=True)
        )
      )
    )
    (2): OctconvBottleneck(
      (conv1): Sequential(
        (0): OctConv2d(in_channels=(low: 64, high: 192), out_channels=(low: 16, high: 48),
                  kernel_size=(1, 1), stride=(1, 1),
                  padding=0, alphas=(0.25, 0.25), bias=False)
        (1): _BatchNorm2d(
          (bnh): BatchNorm2d(48, eps=1e-05, momentum=0.1, affine=True, track_running_stats=True)
          (bnl): BatchNorm2d(16, eps=1e-05, momentum=0.1, affine=True, track_running_stats=True)
        )
        (2): _ReLU(inplace=True)
      )
      (conv2): Sequential(
        (0): OctConv2d(in_channels=(low: 16, high: 48), out_channels=(low: 16, high: 48),
                  kernel_size=(3, 3), stride=(1, 1),
                  padding=1, alphas=(0.25, 0.25), bias=False)
        (1): _BatchNorm2d(
          (bnh): BatchNorm2d(48, eps=1e-05, momentum=0.1, affine=True, track_running_stats=True)
          (bnl): BatchNorm2d(16, eps=1e-05, momentum=0.1, affine=True, track_running_stats=True)
        )
        (2): _ReLU(inplace=True)
      )
      (conv3): Sequential(
        (0): OctConv2d(in_channels=(low: 16, high: 48), out_channels=(low: 64, high: 192),
                  kernel_size=(1, 1), stride=(1, 1),
                  padding=0, alphas=(0.25, 0.25), bias=False)
        (1): _BatchNorm2d(
          (bnh): BatchNorm2d(192, eps=1e-05, momentum=0.1, affine=True, track_running_stats=True)
          (bnl): BatchNorm2d(64, eps=1e-05, momentum=0.1, affine=True, track_running_stats=True)
        )
      )
    )
    (3): OctconvBottleneck(
      (conv1): Sequential(
        (0): OctConv2d(in_channels=(low: 64, high: 192), out_channels=(low: 16, high: 48),
                  kernel_size=(1, 1), stride=(1, 1),
                  padding=0, alphas=(0.25, 0.25), bias=False)
        (1): _BatchNorm2d(
          (bnh): BatchNorm2d(48, eps=1e-05, momentum=0.1, affine=True, track_running_stats=True)
          (bnl): BatchNorm2d(16, eps=1e-05, momentum=0.1, affine=True, track_running_stats=True)
        )
        (2): _ReLU(inplace=True)
      )
      (conv2): Sequential(
        (0): OctConv2d(in_channels=(low: 16, high: 48), out_channels=(low: 16, high: 48),
                  kernel_size=(3, 3), stride=(1, 1),
                  padding=1, alphas=(0.25, 0.25), bias=False)
        (1): _BatchNorm2d(
          (bnh): BatchNorm2d(48, eps=1e-05, momentum=0.1, affine=True, track_running_stats=True)
          (bnl): BatchNorm2d(16, eps=1e-05, momentum=0.1, affine=True, track_running_stats=True)
        )
        (2): _ReLU(inplace=True)
      )
      (conv3): Sequential(
        (0): OctConv2d(in_channels=(low: 16, high: 48), out_channels=(low: 64, high: 192),
                  kernel_size=(1, 1), stride=(1, 1),
                  padding=0, alphas=(0.25, 0.25), bias=False)
        (1): _BatchNorm2d(
          (bnh): BatchNorm2d(192, eps=1e-05, momentum=0.1, affine=True, track_running_stats=True)
          (bnl): BatchNorm2d(64, eps=1e-05, momentum=0.1, affine=True, track_running_stats=True)
        )
      )
    )
  )
  (final_blocks): Sequential(
    (0): OctconvBottleneck(
      (conv1): Sequential(
        (0): OctConv2d(in_channels=(low: 64, high: 192), out_channels=(low: 32, high: 96),
                  kernel_size=(1, 1), stride=(1, 1),
                  padding=0, alphas=(0.25, 0.25), bias=False)
        (1): _BatchNorm2d(
          (bnh): BatchNorm2d(96, eps=1e-05, momentum=0.1, affine=True, track_running_stats=True)
          (bnl): BatchNorm2d(32, eps=1e-05, momentum=0.1, affine=True, track_running_stats=True)
        )
        (2): _ReLU(inplace=True)
      )
      (conv2): Sequential(
        (0): OctConv2d(in_channels=(low: 32, high: 96), out_channels=(low: 32, high: 96),
                  kernel_size=(3, 3), stride=(2, 2),
                  padding=1, alphas=(0.25, 0.25), bias=False)
        (1): _BatchNorm2d(
          (bnh): BatchNorm2d(96, eps=1e-05, momentum=0.1, affine=True, track_running_stats=True)
          (bnl): BatchNorm2d(32, eps=1e-05, momentum=0.1, affine=True, track_running_stats=True)
        )
        (2): _ReLU(inplace=True)
      )
      (conv3): Sequential(
        (0): OctConv2d(in_channels=(low: 32, high: 96), out_channels=(low: 0, high: 512),
                  kernel_size=(1, 1), stride=(1, 1),
                  padding=0, alphas=(0.25, 0.0), bias=False)
        (1): _BatchNorm2d(
          (bnh): BatchNorm2d(512, eps=1e-05, momentum=0.1, affine=True, track_running_stats=True)
          (bnl): BatchNorm2d(0, eps=1e-05, momentum=0.1, affine=True, track_running_stats=True)
        )
      )
      (downsample): Sequential(
        (0): OctConv2d(in_channels=(low: 64, high: 192), out_channels=(low: 0, high: 512),
                  kernel_size=(1, 1), stride=(2, 2),
                  padding=0, alphas=(0.25, 0.0), bias=False)
        (1): _BatchNorm2d(
          (bnh): BatchNorm2d(512, eps=1e-05, momentum=0.1, affine=True, track_running_stats=True)
          (bnl): BatchNorm2d(0, eps=1e-05, momentum=0.1, affine=True, track_running_stats=True)
        )
      )
    )
    (1): Bottleneck(
      (conv1): Sequential(
        (0): Conv2d(512, 128, kernel_size=(1, 1), stride=(1, 1), bias=False)
        (1): BatchNorm2d(128, eps=1e-05, momentum=0.1, affine=True, track_running_stats=True)
        (2): ReLU(inplace=True)
      )
      (conv2): Sequential(
        (0): Conv2d(128, 128, kernel_size=(3, 3), stride=(1, 1), padding=(1, 1), bias=False)
        (1): BatchNorm2d(128, eps=1e-05, momentum=0.1, affine=True, track_running_stats=True)
        (2): ReLU(inplace=True)
      )
      (conv3): Sequential(
        (0): Conv2d(128, 512, kernel_size=(1, 1), stride=(1, 1), bias=False)
        (1): BatchNorm2d(512, eps=1e-05, momentum=0.1, affine=True, track_running_stats=True)
      )
    )
  )
  (avgpool): AdaptiveAvgPool2d(output_size=(1, 1))
  (fc): Linear(in_features=512, out_features=2, bias=True)
)
data_lengths {'train': 1696, 'val': 736}
Epoch 001/100: Train Loss: 0.0147 Acc: 0.7795 | Val Loss: 0.0121 Acc: 0.8247 | time elapsed: 3m 55s
Epoch 002/100: Train Loss: 0.0103 Acc: 0.8585 | Val Loss: 0.0109 Acc: 0.8587 | time elapsed: 3m 54s
Epoch 003/100: Train Loss: 0.0082 Acc: 0.8956 | Val Loss: 0.0094 Acc: 0.8723 | time elapsed: 3m 55s
Epoch 004/100: Train Loss: 0.0065 Acc: 0.9210 | Val Loss: 0.0085 Acc: 0.8940 | time elapsed: 3m 55s
…
